Lesson1/smilesad.pth (torch, 37409 bytes, 6 tensors)

fc1.weight f4 [64, 100]
0.055934854 0.027555281 0.031684108 0.00076589023 -0.084688365 0.032226015 0.094624236 0.074544474
0.015016746 0.050348867 -0.012097197 -0.07486093 0.045802645 0.016692389 -0.028568279 -0.062499963
0.06270537 0.003119241 0.025154855 -0.025853356 0.041072495 0.03973835 0.07975198 0.067517355
0.1455286 0.13117857 0.05827497 0.06700573 0.069909565 0.011114828 -0.04360223 -0.03430529
-0.18014348 -0.030002255 -0.10566911 -0.13946064 -0.15573518 -0.04519318 0.10319288 -0.102152005
-0.013106498 0.020215323 0.085033074 0.15195428 -0.07994063 0.06644268 -0.00043357088 0.0011953268
0.012022192 -0.023083262 0.053301368 0.019804377 0.014265004 0.17203434 0.1623172 0.18456519
0.16580047 -0.02078253 0.006037404 0.05648827 -0.0071691526 0.03254851 -0.06042246 -0.18638892
-0.1374689 -0.05440739 -0.17000128 -0.036962215 0.07264095 0.0800972 -0.061046448 0.029471824
-0.040787935 0.14590696 0.13398036 0.10149091 0.0007109655 -0.10570822 0.012881175 0.064928815
-0.007491935 0.062433038 0.14550027 -0.03917404 -0.18261479 0.029546935 0.09653262 -0.097886175
-0.06374832 0.08186941 -0.0018164604 -0.020707717 -0.058732923 -0.005295925 -0.017894719 -0.07666299
-0.024421085 0.057606798 -0.030775232 -0.0130113065 -0.008438523 -0.06076352 -0.034726165 -0.08236225
-0.05401218 0.119903974 0.09949295 -0.054695 -0.019629175 0.020184115 0.0572761 -0.067524716
0.0025417986 -0.07089911 -0.03516971 -0.00035468643 -0.074160874 0.033343866 0.0016198603 -0.04514813
-0.032064173 -0.041729912 -0.011399233 -0.037096635 -0.1317841 -0.082721405 -0.07144155 -0.108078316
-0.047242735 -0.07802064 0.014037294 0.053622734 0.13391872 0.120886855 0.1779866 5.9260467e-05
0.15897582 0.04749343 0.013821373 0.0059912317 0.057499476 -0.038798504 0.003301619 0.032388974
-0.032597136 -0.08254694 0.07246893 -0.029137645 -0.029171728 -0.008233494 -0.058645442 0.095484875
-0.05041785 -0.09885259 -0.15890244 -0.077372484 -0.13671027 -0.15346354 0.08073702 -0.035909068
-0.05972155 0.09523142 -0.025413355 0.09317352 0.122186296 0.2219726 0.08368136 0.09290105
-0.016967446 -0.06342333 0.0095993625 0.038539868 -0.02113689 0.006766781 0.022096079 -0.15953651
-0.08376829 -0.030026315 -0.08625852 -0.05616135 -0.0646939 -0.037445463 -0.12225777 0.02639563
-0.07891417 0.012990295 0.10125767 0.042741433 -0.04063868 0.08355567 0.058969315 -0.05077685
0.014838741 -0.053797353 0.03756796 -0.011941694 -0.037115768 0.059208523 0.022201156 0.047310665
0.018644514 -0.04272335 0.081591524 0.016924405 -0.03974739 0.040710356 -0.065184325 0.081516184
0.022653705 0.070212826 0.1152467 -0.02543884 -0.05028943 0.071704976 0.13238841 0.14096512
0.073908225 -0.017443012 0.06501747 0.047283288 0.11037267 -0.05998863 0.06505875 0.09893886
0.03986421 0.039145228 0.06615571 0.044418544 0.0272413 0.13770805 0.113482065 0.03449079
0.009949222 -0.022564488 -0.0433188 0.06903054 0.053744256 -0.06567911 0.0022529222 0.031234976
0.0024047242 0.050219577 0.108805 0.05219556 0.059344657 0.043980647 0.12535457 0.014134196
0.07979101 0.093154974 -0.009681472 -0.03998547 0.08167524 0.13011225 0.1481189 0.1754778
00000000: f21b 653d 9dbb e13c 32c7 013d 06c6 483a
00000010: 1871 adbd 6dff 033d 5aca c13d c6aa 983d
00000020: cc08 763c 9d3a 4e3d 5233 46bc b050 99bd
00000030: 8e9b 3b3d 7abe 883c 0608 eabc f6ff 7fbd
00000040: ac6b 803d 2e6c 4c3b 8e11 ce3c 6bca d3bc
00000050: a23b 283d aec4 223d 0255 a33d 8a46 8a3d
00000060: 7305 153e ad53 063e bcb1 6e3d 4d3a 893d
00000070: bf2c 8f3d f81a 363c 4098 32bd b483 0cbd
00000080: 8877 38be 4ac7 f5bc 0c69 d8bd c5ce 0ebe
00000090: 0b79 1fbe 7c1c 39bd ca56 d33d 1235 d1bd
000000a0: a3bc 56bc 9b9a a53c d225 ae3d e799 1b3e
000000b0: eab7 a3bd 1a13 883d e650 e3b9 83ac 9c3a
000000c0: baf8 443c 1c19 bdbc 8952 5a3d ca3c a23c
000000d0: c3b7 693c c529 303e 7b36 263e a8fe 3c3e
000000e0: 99c7 293e 2040 aabc 6ad5 c53b 3f60 673d
000000f0: 36eb eabb 9651 053d 8b7d 77bd bddc 3ebe
00000100: a6c4 0cbe 49da 5ebd d114 2ebe b165 17bd
00000110: c7c4 943d 000a a43d d70b 7abd e56e f13c
00000120: 4011 27bd a268 153e 2632 093e 77da cf3d
00000130: 1660 3a3a 8d7d d8bd 900b 533c 66f9 843d
00000140: e87e f5bb c9b9 7f3d 06fe 143e f574 20bd
00000150: 5fff 3abe 6a0c f23c e5b2 c53d 8c78 c8bd
00000160: 7b8e 82bd 26ab a73d 4c16 eeba 3ba3 a9bc
00000170: ef91 70bd 7089 adbb f297 92bc 7c01 9dbd
00000180: ba0e c8bc 1bf5 6b3d 571c fcbc 602d 55bc
00000190: bb41 0abc 2be3 78bd 063d 0ebd 8aad a8bd
000001a0: e03b 5dbd 3790 f53d f6c2 cb3d dd07 60bd
000001b0: 5dcd a0bc 2859 a53c 589a 6a3d 664a 8abd
000001c0: 4e94 263b 8d33 91bd 1d0e 10bd 35f5 b9b9
000001d0: a8e1 97bd 9493 083d 7e51 d43a 3fed 38bd
000001e0: b955 03bd fcec 2abd d9c3 3abc a4f2 17bd
000001f0: 69f2 06be d769 a9bd f34f 92bd 2a58 ddbd
00000200: 9981 41bd 49c9 9fbd aefc 653c 83a3 5b3d
00000210: fd21 093e 8793 f73d 1f42 363e 718e 7838
00000220: 8fca 223e 7988 423d 0a73 623c 1852 c43b
00000230: 9284 6b3d 2eeb 1ebd fa5f 583b 4daa 043d
00000240: 9384 05bd 5f0e a9bd 976a 943d 12b2 eebc
00000250: 8cf9 eebc c7e5 06bc 3436 70bd 938d c33d
00000260: f382 4ebd 3a73 cabd 52b7 22be 7775 9ebd
00000270: c7fd 0bbe 8c25 1dbe 7359 a53d 6315 13bd
00000280: 969e 74bd b108 c33d ab2f d0bc c2d1 be3d
00000290: cf3c fa3d c94c 633e 2261 ab3d e842 be3d
000002a0: 50ff 8abc 17e4 81bd a546 1d3c fbdb 1d3d
000002b0: 4527 adbc e0bb dd3b d602 b53c 8a5d 23be
000002c0: b68e abbd bff9 f5bc 4fa8 b0bd 7209 66bd
000002d0: 3c7e 84bd 6a60 19bd 4862 fabd a63b d83c
000002e0: c19d a1bd 3fd5 543c 2e60 cf3d a411 2f3d
000002f0: bf74 26bd 3c1f ab3d cf89 713d 63fb 4fbd
00000300: 311e 733c 9d5a 5cbd dce0 193d 18a7 43bc
00000310: b406 18bd a384 723d 33df b53c d4c8 413d
00000320: 61bc 983c aefe 2ebd 7519 a73d 0da5 8a3c
00000330: 29ce 22bd e7bf 263d 5c7f 85bd f5f1 a63d
00000340: 4394 b93c becb 8f3d 7606 ec3d 1d65 d0bc
00000350: 4afc 4dbd 0fda 923d d490 073e 2959 103e
00000360: 325d 973d a6e4 8ebc e127 853d 1fac 413d
00000370: 110b e23d a3b6 75bd 863d 853d 75a0 ca3d
00000380: a748 233d bf56 203d a57c 873d 38f0 353d
00000390: 2629 df3c 5703 0d3e 4969 e83d 3746 0d3d
000003a0: 1002 233c 29d9 b8bc 0e6f 31bd e25f 8d3d
000003b0: f022 5c3d c582 86bd c3a5 133b 7ee0 ff3c
000003c0: 9498 1d3b 0bb3 4d3d 28d5 de3d 03cb 553d
000003d0: 6213 733d 0d25 343d f35c 003e 1d93 673c
000003e0: 7869 a33d 09c8 be3d 099f 1ebc cec7 23bd
000003f0: 5945 a73d 253c 053e 7bac 173e 74b0 333e

fc1.bias f4 [64]
-0.002364897 0.058270153 0.10030422 -0.026371883 -0.0089508025 -0.025683586 0.119333565 0.11577713
0.008453835 -0.03196741 -0.004376449 0.07681146 0.014655774 -0.026778812 0.042472154 0.21299753
-0.021768343 0.09297231 0.0708632 0.039865803 -0.025500191 0.05212498 0.0583553 0.12835482
0.12596846 -0.0023701158 -0.006670962 0.04887158 -0.025039928 -0.081332564 -0.064566836 -0.04095714
0.076095976 0.03531311 -0.000930573 0.038778078 0.02243724 -0.023001436 0.0032806664 0.010482134
0.07110466 0.07395589 0.089185275 0.10107137 0.19592722 0.01935082 0.17187601 -0.076283954
0.16798127 0.20115082 0.06224938 0.06086084 0.035745274 0.020409906 0.047733244 -0.0043646307
0.058248337 0.10680806 0.049742464 0.05557413 0.08815425 0.0791352 0.027094444 0.010987382
00000000: 63fc 1abb afac 6e3d 4d6c cd3d d909 d8bc
00000010: 63a6 12bc 6266 d2bc 2865 f43d 8f1c ed3d
00000020: f481 0a3c 42f0 02bd 5168 8fbb 544f 9d3d
00000030: c61e 703c 3d5f dbbc 48f7 2d3d 061c 5a3e
00000040: 8653 b2bc 4468 be3d ba20 913d 534a 233d
00000050: c7e5 d0bc 0181 553d f805 6f3d 726f 033e
00000060: e0fd 003e f253 1bbb 1698 dabb 912d 483d
00000070: 8920 cdbc b091 a6bd 9e3b 84bd adc2 27bd
00000080: 35d8 9b3d 7ba4 103d b2f1 73ba c3d5 1e3d
00000090: 4ece b73c 826d bcbc 7300 573b 42bd 2b3c
000000a0: 529f 913d 3076 973d c5a6 b63d 82fe ce3d
000000b0: 25a1 483e 9c85 9e3c 4400 303e c33a 9cbd
000000c0: 4803 2c3e 7bfa 4d3e 35f9 7e3d 3749 793d
000000d0: a369 123d ad32 a73c ef83 433d 2d05 8fbb
000000e0: cf95 6e3d 2fbe da3d c1be 4b3d b3a1 633d
000000f0: 378a b43d a311 a23d 2bf5 dd3c 6c04 343c

fc2.weight f4 [32, 64]
0.2611257 0.062519126 0.14360043 -0.08412933 0.13984968 -0.12626655 0.14789216 -0.03480063
0.06528697 0.23642951 0.0302121 0.2085876 0.1805986 -0.18064886 -0.17658141 -0.054563604
0.1844351 0.018551417 -0.018069735 0.18388702 -0.080326915 -0.1489482 0.10228202 0.07227757
0.090481624 -0.064197935 0.24082437 -0.02785772 -0.03655283 -0.27591544 -0.23900336 0.22902302
-0.024252115 0.069305494 0.24445492 -0.16998836 -0.095028155 0.016732417 -0.064963944 0.017025322
0.07082958 -0.15439062 -0.037579957 -0.048996132 0.0071391896 0.12512884 0.103509076 -0.1928167
0.16017756 -0.015314535 0.15444167 0.13267538 0.23019788 -0.27446175 -0.25159624 0.11335982
0.20448352 0.14770073 0.25567394 -0.0995637 0.05320129 0.24221504 -0.18599164 0.22326206
-0.17223236 0.06636886 0.067338124 0.21638729 -0.10949172 0.21062012 0.053291004 0.2340665
-0.091645814 -0.21529144 0.049968746 0.07506868 -0.13823897 0.044306315 0.1373391 0.10902279
-0.15791257 -0.020472754 0.12645091 -0.15937847 0.25629064 0.21710846 -0.117326126 -0.16293338
0.0722175 0.048627365 -0.17745692 0.10219785 0.24171562 0.11949594 0.15191656 -0.056512814
0.13724013 -0.099795446 -0.095494136 0.23366822 -0.014577636 -0.048625495 0.15218443 -0.16252494
-0.17667979 0.17909835 0.041654833 0.105364755 0.025646305 -0.15527335 -0.084025934 0.24330921
0.18606739 0.1319133 -0.2319563 -0.09454683 -0.0661469 0.276727 0.18062219 -0.039112322
-0.14515033 -0.17314497 -0.23801394 0.13595665 0.023064217 -0.21868508 0.20350927 -0.1414677
0.11537007 0.12219359 0.030434217 -0.13150264 0.21983698 -0.012054578 0.14699368 -0.16972022
0.17092 0.093411095 -0.06563785 0.028788995 0.2700455 -0.08209752 -0.10388501 0.002564656
0.19747406 0.0275162 0.0977439 0.039256554 -0.24516581 -0.04456303 0.20910639 0.111159585
-0.014046667 0.016626218 0.13148947 -0.09303327 -0.10446796 -0.24540602 -0.16147041 0.25687966
0.102850296 0.21932995 0.005596957 -0.044758663 -0.09057209 0.20253865 -0.037197407 0.22357582
0.23587658 -0.06485945 -0.039701056 -0.006537231 -0.05458859 0.2413351 0.11862677 0.02736175
0.12103368 0.0009583113 0.29229397 0.14883839 0.2325854 -0.15237212 -0.116883025 0.19668253
0.25325367 0.22275305 0.23783578 -0.07895731 -0.12015923 0.26293683 -0.21122797 0.078536764
0.05843484 0.16595832 0.0804123 -0.05181994 0.23981848 -0.14320552 -0.07311079 -0.073939905
0.198257 0.24920008 -0.18781963 -0.1009942 0.23888522 0.056007173 -0.11362841 -0.07987665
0.11374186 -0.18480094 0.1616933 0.03839335 -0.101388246 -0.05248024 0.055215497 0.15412138
0.05003533 -0.0392485 0.07736847 0.0051476075 -0.14853063 -0.079882585 -0.04335166 -0.07801555
-0.111728735 0.055147998 0.101073034 -0.08885516 0.1490168 0.07058689 -0.14442782 0.14751785
0.20410064 -0.033726256 0.04440927 0.11441441 0.16262355 0.20688605 0.05881185 -0.15928125
-0.17562912 0.118274964 0.21753678 0.07409198 0.25981495 -0.20565087 0.10690895 0.16135165
0.12830164 0.17915265 0.16221295 0.03800509 -0.07134315 0.15079112 -0.046481904 0.09867063
00000000: 45b2 853e 070a 803d fe0b 133e 004c acbd
00000010: c134 0f3e 054c 01be 0b71 173e 1b8b 0ebd
00000020: 2db5 853d 941a 723e 5e7f f73c fd97 553e
00000030: d7ee 383e 04fc 38be c2d1 34be 167e 5fbd
00000040: 8edc 3c3e 24f9 973c fb06 94bc e14c 3c3e
00000050: 7082 a4bd e085 18be 3c79 d13d 4306 943d
00000060: 6e4e b93d 357a 83bd aa9a 763e e035 e4bc
00000070: 6cb8 15bd ca44 8dbe 4cbd 74be 0385 6a3e
00000080: 5fac c6bc 0af0 8d3d 6452 7a3e 6e11 2ebe
00000090: 1f9e c2bd 6c12 893c d10b 85bd b078 8b3c
000000a0: 190f 913d 9318 1ebe 71ed 19bd 2bb0 48bd
000000b0: ddef e93b c621 003e 91fc d33d be71 45be
000000c0: 9605 243e d1e9 7abc f525 1e3e 0edc 073e
000000d0: feb8 6b3e 4086 8cbe 39d1 80be 3129 e83d
000000e0: 2164 513e dc3e 173e b2e7 823e 0ee8 cbbd
000000f0: 99e9 593d 3807 783e 9874 3ebe cf9e 643e
00000100: ae5d 30be 66ec 873d 92e8 893d a194 5d3e
00000110: 323d e0bd cdac 573e ab47 5a3d 21af 6f3e
00000120: cdb0 bbbd 5c75 5cbe 07ac 4c3d 9cbd 993d
00000130: 848e 0dbe 8a7a 353d 9fa2 0c3e 5747 df3d
00000140: d5b3 21be 7ab6 a7bc 597c 013e 1c34 23be
00000150: 8738 833e ae51 5e3e ae48 f0bd 02d8 26be
00000160: c5e6 933d 7d2d 473d 44b7 35be 1b4d d13d
00000170: 4d84 773e 4aba f43d 0490 1b3e fb79 67bd
00000180: ad88 0c3e 8e61 ccbd 6e92 c3bd b946 6f3e
00000190: 09d7 6ebc 872b 47bd 3cd6 1b3e f06c 26be
000001a0: 8ceb 34be 8f65 373e 429e 2a3d 7ac9 d73d
000001b0: 3318 d23c faff 1ebe ca15 acbd 0d26 793e
000001c0: 7388 3e3e 4814 073e f485 6dbe c5a1 c1bd
000001d0: 0778 87bd 29af 8d3e 06f5 383e 3e34 20bd
000001e0: 4aa2 14be ea4c 31be edb9 73be 3838 0b3e
000001f0: 2bf1 bc3c fbee 5fbe bc64 503e e9dc 10be
00000200: 2547 ec3d a240 fa3d 2e51 f93c a1a8 06be
00000210: f21c 613e 9180 45bc 8385 163e 23cb 2dbe
00000220: a705 2f3e 514e bf3d 236d 86bd e6d6 eb3c
00000230: 6743 8a3e bf22 a8bd aac1 d4bd ca13 283b
00000240: a436 4a3e a769 e13c f42d c83d 7bcb 203d
00000250: bf0c 7bbe b987 36bd fc1f 563e a3a7 e33d
00000260: fe23 66bc b533 883c 2da5 063e 3a88 bebd
00000270: 4cf3 d5bd b74b 7bbe 8058 25be bb85 833e
00000280: 2da3 d23d 0898 603e ae66 b73b dc54 37bd
00000290: dc7d b9bd 4b66 4f3e 4f5c 18bd 0ff1 643e
000002a0: a189 713e 08d5 84bd 939d 22bd 4536 d6bb
000002b0: 4998 5fbd 8c20 773e 98f2 f23d c025 e03c
000002c0: 82e0 f73d 2f37 7b3a 8ea7 953e 1769 183e
000002d0: de2a 6e3e 7007 1cbe 5e60 efbd 2567 493e
000002e0: 77aa 813e 6019 643e 398b 733e 5fb4 a1bd
000002f0: 0b16 f6bd a89f 863e 254c 58be e2d7 a03d
00000300: 5f59 6f3d faf0 293e 34af a43d 2541 54bd
00000310: fa92 753e 78a4 12be 1cbb 95bd ce6d 97bd
00000320: e203 4b3e 4e2e 7f3e ca53 40be 0cd6 cebd
00000330: 549e 743e c767 653d 03b6 e8bd 5e96 a3bd
00000340: 7ef1 e83d 753c 3dbe ee92 253e 5842 1d3d
00000350: a4a4 cfbd 85f5 56bd a529 623d ffd1 1d3e
00000360: d9f1 4c3d 09c3 20bd 5c73 9e3d 43ad a83b
00000370: 6a18 18be 7b99 a3bd 8391 31bd 9ec6 9fbd
00000380: 09d2 e4bd dee2 613d 61ff ce3d b2f9 b5bd
00000390: dc97 183e dc8f 903d e3e4 13be eb0e 173e
000003a0: c2ff 503e 8b24 0abd 7fe6 353d 1a52 ea3d
000003b0: ca86 263e f0d9 533e b2e4 703d a01a 23be
000003c0: 1fd8 33be 253a f23d f6c1 5e3e 89bd 973d
000003d0: 7706 853e 2496 52be 14f3 da3d 5e39 253e
000003e0: 8161 033e cb73 373e 271b 263e 3aab 1b3d
000003f0: 5c1c 92bd fd68 1a3e cf63 3ebd d413 ca3d

fc2.bias f4 [32]
0.11681304 0.12879172 -0.05296381 -0.040264186 0.085045926 -0.010764675 0.06670902 -0.08017894
-0.009401377 -0.1154745 0.017805507 0.0527987 0.1687265 -0.015049536 0.098491095 0.097680174
-0.034427084 0.048919078 0.06075743 -0.11794728 -0.019826524 0.06714496 0.07904848 -0.07398803
0.019868715 0.025553623 0.122218356 -0.09593546 0.040770687 -0.030440781 -0.014009123 -0.06005409
00000000: ad3b ef3d fae1 033e 94f0 58bd 0fec 24bd
00000010: 8f2c ae3d 525e 30bc bd9e 883d db34 a4bd
00000020: 3c08 1abc e57d ecbd dbdc 913c 7343 583d
00000030: a4c6 2c3e 5492 76bc b3b5 c93d 8b0c c83d
00000040: 6a03 0dbd 5f5f 483d c8dc 783d 588e f1bd
00000050: 3c6b a2bc 4c83 893d 2be4 a13d 0987 97bd
00000060: b7c3 a23c d555 d13c 9e4d fa3d cf79 c4bd
00000070: 2aff 263d f25e f9bc 8586 65bc 47fb 75bd

fc3.weight f4 [2, 32]
0.045911487 -0.15630978 0.17275131 0.18251114 -0.23160999 0.11006336 0.20840211 0.16260889
0.1405186 0.17331652 -0.10902814 0.30812886 -0.31459543 0.3305509 0.32410845 0.32370827
-0.07939545 0.26455218 0.2746627 0.004035477 -0.19757643 0.21504074 -0.10854401 -0.13975802
-0.19201459 -0.19759187 -0.29740763 -0.3558354 0.33041006 0.02357355 -0.3534202 -0.23725192
-0.32015502 0.25006714 -0.27045324 -0.3660694 0.21706402 -0.1534919 -0.16132665 -0.129984
-0.30611193 -0.06757335 0.28109595 -0.3291908 0.05249331 -0.33696455 -0.11569552 -0.025646215
0.35815483 -0.2384539 -0.2738271 -0.07345052 0.15190268 -0.30987495 0.23718649 0.3091638
0.29247835 0.26962999 0.19817644 0.2789622 -0.20369112 -0.10114046 0.16563974 0.22308771
00000000: af0d 3c3d ac0f 20be b8e5 303e 33e4 3a3e
00000010: 2b2b 6dbe e668 e13d 5d67 553e f282 263e
00000020: 1ce4 0f3e e379 313e 254a dfbd 11c3 9d3e
00000030: a712 a1be f83d a93e 8bf1 a53e 17bd a53e
00000040: 159a a2bd 6273 873e 97a0 8c3e 093c 843b
00000050: 7a51 4abe a433 5c3e 524c debd ba1c 0fbe
00000060: 799f 44be 8655 4abe d045 98be 0f30 b6be
00000070: 822b a93e 511d c13c 7ef3 b4be 2bf2 72be
00000080: 5ceb a3be cd08 803e d978 8abe 736d bbbe
00000090: 0846 5e3e fb2c 1dbe d032 25be 871a 05be
000000a0: b4ba 9cbe e663 8abd cfeb 8f3e b28b a8be
000000b0: 3a03 573d 9e86 acbe c6f1 ecbd 0318 d2bc
000000c0: 1260 b73e 422d 74be 1133 8cbe 3a6d 96bd
000000d0: 608c 1b3e eea7 9ebe 04e1 723e b84a 9e3e
000000e0: b9bf 953e f10c 8a3e c4ee 4a3e 22d4 8e3e
000000f0: 6894 50be bb22 cfbd 779d 293e 1b71 643e

fc3.bias f4 [2]
0.1398504 0.117599785
00000000: f134 0f3e 28d8 f03d
